Model: "sequential_1"
_________________________________________________________________
Layer (type)                 Output Shape              Param #   
=================================================================
dense_3 (Dense)              (None, 60)                1620      
_________________________________________________________________
dense_4 (Dense)              (None, 30)                1830      
_________________________________________________________________
dense_5 (Dense)              (None, 30)                930       
_________________________________________________________________
dropout_1 (Dropout)          (None, 30)                0         
_________________________________________________________________
dense_6 (Dense)              (None, 1)                 31        
=================================================================
Total params: 4,411
Trainable params: 4,411
Non-trainable params: 0
_________________________________________________________________
